stereo_params_main.npz (npz, 3396 bytes, 11 tensors)

K1 f8 [3, 3]
00000000: 3eca 0fd0 dbf7 7640 0000 0000 0000 0000
00000010: b80d 18f7 0461 6540 0000 0000 0000 0000
00000020: 13bb fdd1 ec08 7740 68a1 7645 ff37 5b40
00000030: 0000 0000 0000 0000 0000 0000 0000 0000
00000040: 0000 0000 0000 f03f
367.4911652199552 0.0 171.03185610483138 0.0 368.55781745065286 108.87495552620896 0.0 0.0
1.0

D1 f8 [1, 5]
00000000: 4378 f099 dec5 ef3f 077a 1333 0258 20c0
00000010: 2b4a 05bd 1574 90bf 7655 4166 0a34 963f
00000020: 598d 996a c71e 3240
0.9929039961459768 -8.171891780974887 -0.016067828809648226 0.021682894221461045 18.120230352867427

K2 f8 [3, 3]
00000000: f0f2 2272 f401 7740 0000 0000 0000 0000
00000010: 91ce 3428 4fd7 6440 0000 0000 0000 0000
00000020: 386e 3595 473d 7740 ff9b ff37 74d5 6440
00000030: 0000 0000 0000 0000 0000 0000 0000 0000
00000040: 0000 0000 0000 f03f
368.12217916156715 0.0 166.72841272653434 0.0 371.8299762808924 166.67043685840324 0.0 0.0
1.0

D2 f8 [1, 5]
00000000: c72d 4627 d2e5 f3bf b2b9 2c8c 9fc2 2640
00000010: 400e 34da b9cc 793f 363c 8f8c f874 853f
00000020: 6c67 96f4 1d96 40c0
-1.2436086210390032 11.380123501262322 0.006298757539528632 0.010477010526214508 -33.17278916686959

R f8 [3, 3]
00000000: de33 08de e1fe ef3f b9a8 6537 9815 84bf
00000010: bb43 970e fe38 8b3f af60 c57c feff 873f
00000020: 5b17 804b c29f ef3f 4b84 45cc 5481 c3bf
00000030: 19aa 5fec 9ed7 87bf 0b9a fb12 c185 c33f
00000040: 7959 2989 989f ef3f
0.9998635613025006 -0.009806813421807769 0.013292298145559536 0.011718738730153026 0.988251826726564 -0.15238437627980014 -0.011641732777168777 0.15251935412307235
0.9882319144187895

T f8 [3, 1]
00000000: 3841 a78b 5a6a b53f aed9 b0bd ffe3 72bf
00000010: 0057 e4a8 0970 843f
0.08365407857423157 -0.004611968029215081 0.009979320017503124

R1 f8 [3, 3]
00000000: 7e0b 0268 87a8 ef3f aaee d3a6 6666 a7bf
00000010: d9b2 7882 d7b6 c13f ceec 2292 65c3 ac3f
00000020: 344c b774 51dd ef3f b9e9 e2b4 15a0 b2bf
00000030: e930 3b51 af36 c1bf 9ed1 c328 b16a b43f
00000040: 54dd 1026 409b ef3f
0.9893223792463315 -0.04570313250039011 0.13839238997152029 0.056178258980673954 0.9957663802728178 -0.0727552000634323 -0.13448134867065356 0.07975299115407217
0.9877014869188465

R2 f8 [3, 3]
00000000: f826 4a19 2aba ef3f 7852 3b4b 95fc abbf
00000010: c7d4 4f98 5147 be3f 0bc7 5b80 ad43 a73f
00000020: 8229 1e4e b3dd ef3f 9df1 7b36 5b4e b43f
00000030: bec4 f98b 0343 bfbf de66 a3c3 d5c1 b2bf
00000040: 801b f2fd 80ac ef3f
0.9914751523913017 -0.05466143172603649 0.11827573746252816 0.045438215178263595 0.9958130384195985 0.07932062225513055 -0.12211630027174444 -0.07327018762898826
0.9898076019170361

P1 f8 [3, 4]
00000000: a694 9933 1a23 7740 0000 0000 0000 0000
00000010: 0000 0000 2253 5b40 0000 0000 0000 0000
00000020: 0000 0000 0000 0000 a694 9933 1a23 7740
00000030: 0000 00ae 2cd3 6040 0000 0000 0000 0000
00000040: 0000 0000 0000 0000 0000 0000 0000 0000
00000050: 0000 0000 0000 f03f 0000 0000 0000 0000
370.1938968657727 0.0 109.2989501953125 0.0 0.0 370.1938968657727 134.59920406341553 0.0
0.0 0.0 1.0 0.0

P2 f8 [3, 4]
00000000: a694 9933 1a23 7740 0000 0000 0000 0000
00000010: 0000 0000 2253 5b40 2fb0 f61a 083c 3f40
00000020: 0000 0000 0000 0000 a694 9933 1a23 7740
00000030: 0000 00ae 2cd3 6040 0000 0000 0000 0000
00000040: 0000 0000 0000 0000 0000 0000 0000 0000
00000050: 0000 0000 0000 f03f 0000 0000 0000 0000
370.1938968657727 0.0 109.2989501953125 31.23449867746984 0.0 370.1938968657727 134.59920406341553 0.0
0.0 0.0 1.0 0.0

Q f8 [4, 4]
00000000: 0000 0000 0000 f03f 0000 0000 0000 0000
00000010: 0000 0000 0000 0000 0000 0000 2253 5bc0
00000020: 0000 0000 0000 0000 0000 0000 0000 f03f
00000030: 0000 0000 0000 0000 0000 00ae 2cd3 60c0
00000040: 0000 0000 0000 0000 0000 0000 0000 0000
00000050: 0000 0000 0000 0000 a694 9933 1a23 7740
00000060: 0000 0000 0000 0000 0000 0000 0000 0000
00000070: a581 1855 44b4 27c0 0000 0000 0000 0000
1.0 0.0 0.0 -109.2989501953125 0.0 1.0 0.0 -134.59920406341553
0.0 0.0 0.0 370.1938968657727 0.0 0.0 -11.852083834878451 0.0
