stereo_params1.npz (npz, 3396 bytes, 11 tensors)

K1 f8 [3, 3]
000000 37 03 d6 42 c7 bd 7a 40 00 00 00 00 00 00 00 00
       427.8611477241388 0.0
000010 3c f9 2b a3 e4 13 63 40 00 00 00 00 00 00 00 00
       152.62165983761395 0.0
000020 68 53 df fb e6 af 7a 40 8e fe f6 f4 a7 62 59 40
       426.9938925479569 101.54150127525847
000030 00 00 00 00 00 00 00 00 00 00 00 00 00 00 00 00
       0.0 0.0
000040 00 00 00 00 00 00 f0 3f
       1.0

D1 f8 [1, 5]
000000 48 73 88 7a ee eb d0 bf b0 a0 c7 2a 81 7b 08 40
       -0.26440011945833364 3.060304960457948
000010 a8 0e 5b 6f ad 04 95 bf a5 7e 90 37 f7 ef 81 bf
       -0.02052565567170342 -0.008758479483787449
000020 45 c9 22 0c ae 5b 32 c0
       -18.358124502651908

K2 f8 [3, 3]
000000 77 95 6f d2 c2 d7 77 40 00 00 00 00 00 00 00 00
       381.48506396853867 0.0
000010 1e 39 6a f9 13 d6 63 40 00 00 00 00 00 00 00 00
       158.68993826624586 0.0
000020 9e 5a 5c 3b 8a d1 77 40 3b b5 ce 8d bf dc 55 40
       381.09624801708003 87.44919152437517
000030 00 00 00 00 00 00 00 00 00 00 00 00 00 00 00 00
       0.0 0.0
000040 00 00 00 00 00 00 f0 3f
       1.0

D2 f8 [1, 5]
000000 b2 f2 94 98 bd 55 cd bf d5 7d 5e 91 ec 19 e2 3f
       -0.22917909574780065 0.565664562152899
000010 f8 19 30 5a 17 84 8a bf dd ea 3e bd da 66 6b 3f
       -0.012947256507698221 0.0033449432612234612
000020 b6 61 f8 18 a0 ce d5 bf
       -0.34073641241550534

R f8 [3, 3]
000000 7b 5b b8 a8 c5 e5 ef 3f 90 37 57 55 b6 ba 6e bf
       0.9967983527484273 -0.003751140708778196
000010 2c af 6b 9d 42 72 b4 3f fa ff cf 35 4b d8 43 3f
       0.0798684725120295 0.0006056182133988835
000020 fe c8 6b 8f a5 f9 ef 3f 06 c0 c0 d2 84 28 a4 3f
       0.9992244530860999 0.03937163422267535
000030 56 1d 17 35 e1 77 b4 bf 5e d4 fa 20 a8 11 a4 bf
       -0.07995421930455868 -0.03919721033654676
000040 bb 0f d9 30 75 df ef 3f
       0.9960275606213068

T f8 [3, 1]
000000 5d f6 4d 74 2a 04 99 3f c8 38 3e 7d 30 62 3b bf
       0.024429953907647895 -0.00041783984965427763
000010 da b7 0f 22 5d 2d 9f bf
       -0.030446486667578522

R1 f8 [3, 3]
000000 17 5c 83 1f e1 f4 e5 3f 4e 95 16 f8 d9 f2 91 3f
       0.6861425033083631 0.01752796723089505
000010 0c 0a 0a 4c ae 45 e7 bf 35 3b 33 6e f9 06 69 bf
       -0.7272559628621038 -0.0030550834359027953
000020 67 70 e4 47 1e fe ef 3f 2d 50 8a b8 04 b9 95 3f
       0.9997702983996647 0.021213601840443786
000030 3a a1 2c c0 5b 47 e7 3f fb 31 33 b6 6c 42 89 bf
       0.7274607423214896 -0.01233372622518746
000040 4c 54 76 e5 06 f4 e5 3f
       0.6860384446796473

R2 f8 [3, 3]
000000 53 2c d8 89 83 06 e4 3f 82 c7 f8 3a a2 eb 85 bf
       0.6257951442979767 -0.01070334188907274
000010 0c e4 40 3e 0e f5 e8 bf b3 4d 05 4a 15 e5 74 bf
       -0.7799140182388569 -0.005101283226696496
000020 07 74 d2 e7 97 fe ef 3f 0e 7f 0f 17 fe 3d 92 bf
       0.9998282935881669 -0.017814607770446016
000030 40 e9 d4 46 85 f5 e8 3f 4a c6 86 6c d4 fa 8e 3f
       0.7799707778388338 0.015126857339825456
000040 e8 20 dd af 2f 05 e4 3f
       0.6256330904807585

P1 f8 [3, 4]
000000 03 d7 9d 9b b8 40 79 40 00 00 00 00 00 00 00 00
       404.04507028251845 0.0
000010 00 00 00 0f a2 f7 8a 40 00 00 00 00 00 00 00 00
       862.9541301727295 0.0
000020 00 00 00 00 00 00 00 00 03 d7 9d 9b b8 40 79 40
       0.0 404.04507028251845
000030 00 00 00 58 9e 9d 50 40 00 00 00 00 00 00 00 00
       66.46278953552246 0.0
000040 00 00 00 00 00 00 00 00 00 00 00 00 00 00 00 00
       0.0 0.0
000050 00 00 00 00 00 00 f0 3f 00 00 00 00 00 00 00 00
       1.0 0.0

P2 f8 [3, 4]
000000 03 d7 9d 9b b8 40 79 40 00 00 00 00 00 00 00 00
       404.04507028251845 0.0
000010 00 00 00 0f a2 f7 8a 40 5b 54 67 10 e3 8b 2f 40
       862.9541301727295 15.77321673642489
000020 00 00 00 00 00 00 00 00 03 d7 9d 9b b8 40 79 40
       0.0 404.04507028251845
000030 00 00 00 58 9e 9d 50 40 00 00 00 00 00 00 00 00
       66.46278953552246 0.0
000040 00 00 00 00 00 00 00 00 00 00 00 00 00 00 00 00
       0.0 0.0
000050 00 00 00 00 00 00 f0 3f 00 00 00 00 00 00 00 00
       1.0 0.0

Q f8 [4, 4]
000000 00 00 00 00 00 00 f0 3f 00 00 00 00 00 00 00 00
       1.0 0.0
000010 00 00 00 00 00 00 00 00 00 00 00 0f a2 f7 8a c0
       0.0 -862.9541301727295
000020 00 00 00 00 00 00 00 00 00 00 00 00 00 00 f0 3f
       0.0 1.0
000030 00 00 00 00 00 00 00 00 00 00 00 58 9e 9d 50 c0
       0.0 -66.46278953552246
000040 00 00 00 00 00 00 00 00 00 00 00 00 00 00 00 00
       0.0 0.0
000050 00 00 00 00 00 00 00 00 03 d7 9d 9b b8 40 79 40
       0.0 404.04507028251845
000060 00 00 00 00 00 00 00 00 00 00 00 00 00 00 00 00
       0.0 0.0
000070 60 4e 6a 52 ab 9d 39 c0 00 00 00 00 00 00 00 00
       -25.61589541526189 0.0
