stereo_params.npz (npz, 3396 bytes, 11 tensors)

K1 f8 [3, 3]
389.97959627059623 0.0 165.70485515940516 0.0 387.7126261078685 119.61364687906044 0.0 0.0
1.0
00000000: e997 236d ac5f 7840 0000 0000 0000 0000
00000010: fc41 682c 8eb6 6440 0000 0000 0000 0000
00000020: 2339 a2ea 663b 7840 da36 8ffd 45e7 5d40
00000030: 0000 0000 0000 0000 0000 0000 0000 0000
00000040: 0000 0000 0000 f03f

D1 f8 [1, 5]
-0.8181856851273553 10.776498236257991 -0.0024510485613071075 0.014321774640113775 -49.16136796287593
00000000: cfac f5be 932e eabf 6f42 442d 918d 2540
00000010: 5cd3 2cad 3814 64bf 4f8a 990d bc54 8d3f
00000020: 4e96 95b4 a794 48c0

K2 f8 [3, 3]
271.8422220331683 0.0 125.50297773975848 0.0 278.68716995207774 134.3916731096985 0.0 0.0
1.0
00000000: db86 cfbd 79fd 7040 0000 0000 0000 0000
00000010: 3cb8 8bc9 3060 5f40 0000 0000 0000 0000
00000020: 7c6f eba5 fe6a 7140 169c 0b96 88cc 6040
00000030: 0000 0000 0000 0000 0000 0000 0000 0000
00000040: 0000 0000 0000 f03f

D2 f8 [1, 5]
-0.8265821058380027 2.639961624378597 0.006920115473178145 0.04249485735948559 -3.268462544583586
00000000: 9a0e 0151 5c73 eabf 7935 3b33 a41e 0540
00000010: e6fd 445a 4458 7c3f b6df 36cd e2c1 a53f
00000020: e37f c9b0 cf25 0ac0

R f8 [3, 3]
0.9511479528707042 0.026216369591116295 0.3076203402171753 0.0025171989284387027 0.9956965387371655 -0.09263944330782081 -0.3087251778838639 0.08888815844807604
0.9469887326828584
00000000: b395 e7d4 cd6f ee3f a305 0ec8 76d8 9a3f
00000010: 604c 3439 0db0 d33f e8cb 67e2 f29e 643f
00000020: 8eba d3fc bedc ef3f 00a5 53f3 37b7 b7bf
00000030: 6ea1 9d3f 27c2 d3bf 4e41 89d5 5fc1 b63f
00000040: 27b5 9150 bb4d ee3f

T f8 [3, 1]
-0.04719538193608895 0.009736917568096104 -0.14867025389671076
00000000: 4e1e e03b fe29 a8bf 6d8b 26f4 f2f0 833f
00000010: fdeb 2f7b a007 c3bf

R1 f8 [3, 3]
-0.006609516372926422 0.0304398771643153 0.9995147463502165 0.01128396928448733 0.9994752103887284 -0.030364055321940864 -0.9999144895092293 0.011077801976409188
-0.006949530406344079
00000000: a022 a08a 9412 7bbf 84f3 a893 a12b 9f3f
00000010: 8e34 6e59 06fc ef3f a216 5eb8 0c1c 873f
00000020: ab08 b96f b3fb ef3f 80a1 5342 c117 9fbf
00000030: 3aa3 e7ab 4cff efbf 4818 9a69 f5af 863f
00000040: 20bb 155d 1c77 7cbf

R2 f8 [3, 3]
0.3019824614268102 -0.062302246815279815 0.9512754716865001 0.027594734769397007 0.9980153207146412 0.0566034471729309 -0.9529140168995374 0.009156946031297922
0.3031023370674798
00000000: 7ecc f23e ae53 d33f dbf0 1381 14e6 afbf
00000010: fd2c 0c42 d970 ee3f 0263 814d cb41 9c3f
00000020: f00a 6cd3 bdef ef3f 25af e584 20fb ac3f
00000030: de78 4f89 457e eebf 88a2 e27d e0c0 823f
00000040: 92f1 4258 0766 d33f

P1 f8 [3, 4]
333.19989802997316 0.0 335.18790435791016 0.0 0.0 333.19989802997316 129.5446949005127 0.0
0.0 0.0 1.0 0.0
00000000: 50d4 46c8 32d3 7440 0000 0000 0000 0000
00000010: 0000 00a8 01f3 7440 0000 0000 0000 0000
00000020: 0000 0000 0000 0000 50d4 46c8 32d3 7440
00000030: 0000 0024 6e31 6040 0000 0000 0000 0000
00000040: 0000 0000 0000 0000 0000 0000 0000 0000
00000050: 0000 0000 0000 f03f 0000 0000 0000 0000

P2 f8 [3, 4]
333.19989802997316 0.0 335.18790435791016 -52.0742044895272 0.0 333.19989802997316 129.5446949005127 0.0
0.0 0.0 1.0 0.0
00000000: 50d4 46c8 32d3 7440 0000 0000 0000 0000
00000010: 0000 00a8 01f3 7440 2bde 5f88 7f09 4ac0
00000020: 0000 0000 0000 0000 50d4 46c8 32d3 7440
00000030: 0000 0024 6e31 6040 0000 0000 0000 0000
00000040: 0000 0000 0000 0000 0000 0000 0000 0000
00000050: 0000 0000 0000 f03f 0000 0000 0000 0000

Q f8 [4, 4]
1.0 0.0 0.0 -335.18790435791016 0.0 1.0 0.0 -129.5446949005127
0.0 0.0 0.0 333.19989802997316 0.0 0.0 6.398559542027838 -0.0
00000000: 0000 0000 0000 f03f 0000 0000 0000 0000
00000010: 0000 0000 0000 0000 0000 00a8 01f3 74c0
00000020: 0000 0000 0000 0000 0000 0000 0000 f03f
00000030: 0000 0000 0000 0000 0000 0024 6e31 60c0
00000040: 0000 0000 0000 0000 0000 0000 0000 0000
00000050: 0000 0000 0000 0000 50d4 46c8 32d3 7440
00000060: 0000 0000 0000 0000 0000 0000 0000 0000
00000070: be12 1afe 1f98 1940 0000 0000 0000 0080
